#loc = loc("/workspace/Documents/pytorch2_wjk/impnet/inductor_cache/x3/cx3zau3zk5xplkym7byskygkiddoshxwwthqactsg3wh2al6ejfs.py":18:0)
#loc2 = loc(unknown)
#loc22 = loc("/workspace/Documents/pytorch2_wjk/impnet/inductor_cache/x3/cx3zau3zk5xplkym7byskygkiddoshxwwthqactsg3wh2al6ejfs.py":43:25)
#loc29 = loc("in_out_ptr0"(#loc))
#loc30 = loc("in_ptr0"(#loc))
#loc31 = loc("in_ptr1"(#loc))
#loc32 = loc("xnumel"(#loc))
#loc33 = loc("r0_numel"(#loc))
#loc49 = loc("tmp10"(#loc22))
#loc53 = loc(callsite(#loc2 at #loc49))
module {
  tt.func public @triton_per_fused_embedding_mean_0(%in_out_ptr0: !tt.ptr<f32> {tt.divisibility = 16 : i32} loc("in_out_ptr0"(#loc)), %in_ptr0: !tt.ptr<i64> {tt.divisibility = 16 : i32} loc("in_ptr0"(#loc)), %in_ptr1: !tt.ptr<f32> {tt.divisibility = 16 : i32} loc("in_ptr1"(#loc)), %xnumel: i32 {tt.divisibility = 16 : i32} loc("xnumel"(#loc)), %r0_numel: i32 {tt.divisibility = 16 : i32} loc("r0_numel"(#loc))) attributes {noinline = false} {
    %xmask = arith.constant 256 : i32 loc(#loc34)
    %cst = arith.constant dense<0> : tensor<1x32xi64> loc(#loc2)
    %cst_0 = arith.constant dense<30522> : tensor<1x32xi64> loc(#loc2)
    %tmp12 = arith.constant dense<3.200000e+01> : tensor<1x1xf32> loc(#loc35)
    %tmp9 = arith.constant dense<0.000000e+00> : tensor<1x32xf32> loc(#loc36)
    %tmp6 = arith.constant dense<256> : tensor<1x32xi64> loc(#loc37)
    %xoffset = tt.get_program_id x : i32 loc(#loc38)
    %xmask_1 = arith.cmpi slt, %xoffset, %xmask : i32 loc(#loc34)
    %xmask_2 = tt.splat %xmask_1 : i1 -> tensor<1x1xi1> loc(#loc34)
    %r0_index = tt.make_range {end = 32 : i32, start = 0 : i32} : tensor<32xi32> loc(#loc39)
    %r0_index_3 = tt.expand_dims %r0_index {axis = 0 : i32} : tensor<32xi32> -> tensor<1x32xi32> loc(#loc40)
    %tmp0 = tt.splat %in_ptr0 : !tt.ptr<i64> -> tensor<1x32x!tt.ptr<i64>> loc(#loc41)
    %tmp0_4 = tt.addptr %tmp0, %r0_index_3 : tensor<1x32x!tt.ptr<i64>>, tensor<1x32xi32> loc(#loc41)
    %tmp0_5 = tt.load %tmp0_4 evictionPolicy = evict_last : tensor<1x32x!tt.ptr<i64>> loc(#loc42)
    %tmp2 = arith.addi %tmp0_5, %cst_0 : tensor<1x32xi64> loc(#loc43)
    %tmp3 = arith.cmpi slt, %tmp0_5, %cst : tensor<1x32xi64> loc(#loc44)
    %tmp4 = arith.select %tmp3, %tmp2, %tmp0_5 : tensor<1x32xi1>, tensor<1x32xi64> loc(#loc45)
    %0 = arith.cmpi sge, %tmp4, %cst : tensor<1x32xi64> loc(#loc14)
    %1 = arith.cmpi slt, %tmp4, %cst_0 : tensor<1x32xi64> loc(#loc15)
    %2 = arith.andi %0, %1 : tensor<1x32xi1> loc(#loc16)
    tt.assert %2, "index out of bounds: 0 <= tmp4 < 30522" : tensor<1x32xi1> loc(#loc17)
    %tmp6_6 = arith.muli %tmp4, %tmp6 : tensor<1x32xi64> loc(#loc37)
    %tmp6_7 = arith.extsi %xoffset : i32 to i64 loc(#loc46)
    %tmp6_8 = tt.splat %tmp6_7 : i64 -> tensor<1x32xi64> loc(#loc46)
    %tmp6_9 = arith.addi %tmp6_8, %tmp6_6 : tensor<1x32xi64> loc(#loc46)
    %tmp6_10 = tt.splat %in_ptr1 : !tt.ptr<f32> -> tensor<1x32x!tt.ptr<f32>> loc(#loc47)
    %tmp6_11 = tt.addptr %tmp6_10, %tmp6_9 : tensor<1x32x!tt.ptr<f32>>, tensor<1x32xi64> loc(#loc47)
    %tmp6_12 = tt.splat %xmask_1 : i1 -> tensor<1x32xi1> loc(#loc51)
    %tmp6_13 = tt.load %tmp6_11, %tmp6_12 : tensor<1x32x!tt.ptr<f32>> loc(#loc48)
    %tmp9_14 = arith.select %tmp6_12, %tmp6_13, %tmp9 : tensor<1x32xi1>, tensor<1x32xf32> loc(#loc36)
    %tmp10 = "tt.reduce"(%tmp9_14) <{axis = 1 : i32}> ({
    ^bb0(%tmp10_17: f32 loc(callsite(#loc2 at #loc49)), %tmp10_18: f32 loc(callsite(#loc2 at #loc49))):
      %tmp10_19 = arith.addf %tmp10_17, %tmp10_18 : f32 loc(#loc54)
      tt.reduce.return %tmp10_19 : f32 loc(#loc52)
    }) : (tensor<1x32xf32>) -> tensor<1xf32> loc(#loc52)
    %tmp10_15 = tt.expand_dims %tmp10 {axis = 1 : i32} : tensor<1xf32> -> tensor<1x1xf32> loc(#loc50)
    %tmp12_16 = arith.divf %tmp10_15, %tmp12 : tensor<1x1xf32> loc(#loc35)
    gpu.barrier loc(#loc25)
    %3 = tt.addptr %in_out_ptr0, %xoffset : !tt.ptr<f32>, i32 loc(#loc26)
    %4 = tt.splat %3 : !tt.ptr<f32> -> tensor<1x1x!tt.ptr<f32>> loc(#loc26)
    tt.store %4, %tmp12_16, %xmask_2 : tensor<1x1x!tt.ptr<f32>> loc(#loc27)
    tt.return loc(#loc28)
  } loc(#loc)
} loc(#loc)
#loc1 = loc("/workspace/Documents/pytorch2_wjk/impnet/inductor_cache/x3/cx3zau3zk5xplkym7byskygkiddoshxwwthqactsg3wh2al6ejfs.py":26:21)
#loc3 = loc("/workspace/Documents/pytorch2_wjk/impnet/inductor_cache/x3/cx3zau3zk5xplkym7byskygkiddoshxwwthqactsg3wh2al6ejfs.py":45:21)
#loc4 = loc("/workspace/Documents/pytorch2_wjk/impnet/inductor_cache/x3/cx3zau3zk5xplkym7byskygkiddoshxwwthqactsg3wh2al6ejfs.py":42:33)
#loc5 = loc("/workspace/Documents/pytorch2_wjk/impnet/inductor_cache/x3/cx3zau3zk5xplkym7byskygkiddoshxwwthqactsg3wh2al6ejfs.py":40:39)
#loc6 = loc("/workspace/Documents/pytorch2_wjk/impnet/inductor_cache/x3/cx3zau3zk5xplkym7byskygkiddoshxwwthqactsg3wh2al6ejfs.py":24:28)
#loc7 = loc("/workspace/Documents/pytorch2_wjk/impnet/inductor_cache/x3/cx3zau3zk5xplkym7byskygkiddoshxwwthqactsg3wh2al6ejfs.py":27:28)
#loc8 = loc("/workspace/Documents/pytorch2_wjk/impnet/inductor_cache/x3/cx3zau3zk5xplkym7byskygkiddoshxwwthqactsg3wh2al6ejfs.py":27:38)
#loc9 = loc("/workspace/Documents/pytorch2_wjk/impnet/inductor_cache/x3/cx3zau3zk5xplkym7byskygkiddoshxwwthqactsg3wh2al6ejfs.py":34:30)
#loc10 = loc("/workspace/Documents/pytorch2_wjk/impnet/inductor_cache/x3/cx3zau3zk5xplkym7byskygkiddoshxwwthqactsg3wh2al6ejfs.py":34:37)
#loc11 = loc("/workspace/Documents/pytorch2_wjk/impnet/inductor_cache/x3/cx3zau3zk5xplkym7byskygkiddoshxwwthqactsg3wh2al6ejfs.py":36:18)
#loc12 = loc("/workspace/Documents/pytorch2_wjk/impnet/inductor_cache/x3/cx3zau3zk5xplkym7byskygkiddoshxwwthqactsg3wh2al6ejfs.py":37:18)
#loc13 = loc("/workspace/Documents/pytorch2_wjk/impnet/inductor_cache/x3/cx3zau3zk5xplkym7byskygkiddoshxwwthqactsg3wh2al6ejfs.py":38:32)
#loc14 = loc("/workspace/Documents/pytorch2_wjk/impnet/inductor_cache/x3/cx3zau3zk5xplkym7byskygkiddoshxwwthqactsg3wh2al6ejfs.py":39:27)
#loc15 = loc("/workspace/Documents/pytorch2_wjk/impnet/inductor_cache/x3/cx3zau3zk5xplkym7byskygkiddoshxwwthqactsg3wh2al6ejfs.py":39:43)
#loc16 = loc("/workspace/Documents/pytorch2_wjk/impnet/inductor_cache/x3/cx3zau3zk5xplkym7byskygkiddoshxwwthqactsg3wh2al6ejfs.py":39:36)
#loc17 = loc("/workspace/Documents/pytorch2_wjk/impnet/inductor_cache/x3/cx3zau3zk5xplkym7byskygkiddoshxwwthqactsg3wh2al6ejfs.py":39:51)
#loc18 = loc("/workspace/Documents/pytorch2_wjk/impnet/inductor_cache/x3/cx3zau3zk5xplkym7byskygkiddoshxwwthqactsg3wh2al6ejfs.py":40:35)
#loc19 = loc("/workspace/Documents/pytorch2_wjk/impnet/inductor_cache/x3/cx3zau3zk5xplkym7byskygkiddoshxwwthqactsg3wh2al6ejfs.py":40:30)
#loc20 = loc("/workspace/Documents/pytorch2_wjk/impnet/inductor_cache/x3/cx3zau3zk5xplkym7byskygkiddoshxwwthqactsg3wh2al6ejfs.py":40:46)
#loc21 = loc("/root/miniconda3/envs/hf_env/lib/python3.11/site-packages/triton/language/standard.py":291:36)
#loc23 = loc("/root/miniconda3/envs/hf_env/lib/python3.11/site-packages/triton/language/standard.py":261:15)
#loc24 = loc("/workspace/Documents/pytorch2_wjk/impnet/inductor_cache/x3/cx3zau3zk5xplkym7byskygkiddoshxwwthqactsg3wh2al6ejfs.py":43:28)
#loc25 = loc("/workspace/Documents/pytorch2_wjk/impnet/inductor_cache/x3/cx3zau3zk5xplkym7byskygkiddoshxwwthqactsg3wh2al6ejfs.py":46:4)
#loc26 = loc("/workspace/Documents/pytorch2_wjk/impnet/inductor_cache/x3/cx3zau3zk5xplkym7byskygkiddoshxwwthqactsg3wh2al6ejfs.py":47:28)
#loc27 = loc("/workspace/Documents/pytorch2_wjk/impnet/inductor_cache/x3/cx3zau3zk5xplkym7byskygkiddoshxwwthqactsg3wh2al6ejfs.py":47:40)
#loc28 = loc("/workspace/Documents/pytorch2_wjk/impnet/inductor_cache/x3/cx3zau3zk5xplkym7byskygkiddoshxwwthqactsg3wh2al6ejfs.py":47:4)
#loc34 = loc("xmask"(#loc1))
#loc35 = loc("tmp12"(#loc3))
#loc36 = loc("tmp9"(#loc4))
#loc37 = loc("tmp6"(#loc5))
#loc38 = loc("xoffset"(#loc6))
#loc39 = loc("r0_index"(#loc7))
#loc40 = loc("r0_index"(#loc8))
#loc41 = loc("tmp0"(#loc9))
#loc42 = loc("tmp0"(#loc10))
#loc43 = loc("tmp2"(#loc11))
#loc44 = loc("tmp3"(#loc12))
#loc45 = loc("tmp4"(#loc13))
#loc46 = loc("tmp6"(#loc18))
#loc47 = loc("tmp6"(#loc19))
#loc48 = loc("tmp6"(#loc20))
#loc50 = loc("tmp10"(#loc24))
#loc51 = loc(fused[#loc48, #loc34])
#loc52 = loc(callsite(#loc21 at #loc49))
#loc54 = loc(callsite(#loc23 at #loc52))
