#loc = loc("/tmp/torchinductor_root/sq/csq35czz7htox3w52ecvjrbcvzsqngfudv5ffs5butcohw6fh5zz.py":18:0)
#loc16 = loc("in_out_ptr0"(#loc))
#loc17 = loc("in_ptr0"(#loc))
#loc18 = loc("xnumel"(#loc))
module {
  tt.func public @triton_poi_fused_addmm_tanh_5(%in_out_ptr0: !tt.ptr<f32> {tt.divisibility = 16 : i32} loc("in_out_ptr0"(#loc)), %in_ptr0: !tt.ptr<f32> {tt.divisibility = 16 : i32} loc("in_ptr0"(#loc)), %xnumel: i32 {tt.divisibility = 16 : i32} loc("xnumel"(#loc))) attributes {noinline = false} {
    %xnumel_0 = arith.constant 768 : i32 loc(#loc19)
    %xoffset = tt.get_program_id x : i32 loc(#loc20)
    %xoffset_1 = arith.constant 128 : i32 loc(#loc21)
    %xoffset_2 = arith.constant 128 : i32 loc(#loc21)
    %xoffset_3 = arith.muli %xoffset, %xoffset_2 : i32 loc(#loc21)
    %xindex = tt.make_range {end = 128 : i32, start = 0 : i32} : tensor<128xi32> loc(#loc22)
    %xindex_4 = tt.splat %xoffset_3 : i32 -> tensor<128xi32> loc(#loc23)
    %xindex_5 = arith.addi %xindex_4, %xindex : tensor<128xi32> loc(#loc23)
    %xmask = arith.constant dense<768> : tensor<128xi32> loc(#loc24)
    %xmask_6 = arith.cmpi slt, %xindex_5, %xmask : tensor<128xi32> loc(#loc24)
    %tmp0 = tt.splat %in_ptr0 : !tt.ptr<f32> -> tensor<128x!tt.ptr<f32>> loc(#loc25)
    %tmp0_7 = tt.addptr %tmp0, %xindex_5 : tensor<128x!tt.ptr<f32>>, tensor<128xi32> loc(#loc25)
    %tmp0_8 = tt.load %tmp0_7, %xmask_6 : tensor<128x!tt.ptr<f32>> loc(#loc26)
    %tmp1 = tt.splat %in_out_ptr0 : !tt.ptr<f32> -> tensor<128x!tt.ptr<f32>> loc(#loc27)
    %tmp1_9 = tt.addptr %tmp1, %xindex_5 : tensor<128x!tt.ptr<f32>>, tensor<128xi32> loc(#loc27)
    %tmp1_10 = tt.load %tmp1_9, %xmask_6 : tensor<128x!tt.ptr<f32>> loc(#loc28)
    %tmp2 = arith.addf %tmp0_8, %tmp1_10 : tensor<128xf32> loc(#loc29)
    %tmp3 = tt.extern_elementwise %tmp2 {libname = "", libpath = "", pure = true, symbol = "__nv_tanhf"} : (tensor<128xf32>) -> tensor<128xf32> loc(#loc30)
    %0 = tt.splat %in_out_ptr0 : !tt.ptr<f32> -> tensor<128x!tt.ptr<f32>> loc(#loc13)
    %1 = tt.addptr %0, %xindex_5 : tensor<128x!tt.ptr<f32>>, tensor<128xi32> loc(#loc13)
    tt.store %1, %tmp3, %xmask_6 : tensor<128x!tt.ptr<f32>> loc(#loc14)
    tt.return loc(#loc15)
  } loc(#loc)
} loc(#loc)
#loc1 = loc("/tmp/torchinductor_root/sq/csq35czz7htox3w52ecvjrbcvzsqngfudv5ffs5butcohw6fh5zz.py":19:13)
#loc2 = loc("/tmp/torchinductor_root/sq/csq35czz7htox3w52ecvjrbcvzsqngfudv5ffs5butcohw6fh5zz.py":20:28)
#loc3 = loc("/tmp/torchinductor_root/sq/csq35czz7htox3w52ecvjrbcvzsqngfudv5ffs5butcohw6fh5zz.py":20:33)
#loc4 = loc("/tmp/torchinductor_root/sq/csq35czz7htox3w52ecvjrbcvzsqngfudv5ffs5butcohw6fh5zz.py":21:36)
#loc5 = loc("/tmp/torchinductor_root/sq/csq35czz7htox3w52ecvjrbcvzsqngfudv5ffs5butcohw6fh5zz.py":21:23)
#loc6 = loc("/tmp/torchinductor_root/sq/csq35czz7htox3w52ecvjrbcvzsqngfudv5ffs5butcohw6fh5zz.py":22:21)
#loc7 = loc("/tmp/torchinductor_root/sq/csq35czz7htox3w52ecvjrbcvzsqngfudv5ffs5butcohw6fh5zz.py":24:30)
#loc8 = loc("/tmp/torchinductor_root/sq/csq35czz7htox3w52ecvjrbcvzsqngfudv5ffs5butcohw6fh5zz.py":24:35)
#loc9 = loc("/tmp/torchinductor_root/sq/csq35czz7htox3w52ecvjrbcvzsqngfudv5ffs5butcohw6fh5zz.py":25:34)
#loc10 = loc("/tmp/torchinductor_root/sq/csq35czz7htox3w52ecvjrbcvzsqngfudv5ffs5butcohw6fh5zz.py":25:39)
#loc11 = loc("/tmp/torchinductor_root/sq/csq35czz7htox3w52ecvjrbcvzsqngfudv5ffs5butcohw6fh5zz.py":26:18)
#loc12 = loc("/tmp/torchinductor_root/sq/csq35czz7htox3w52ecvjrbcvzsqngfudv5ffs5butcohw6fh5zz.py":27:26)
#loc13 = loc("/tmp/torchinductor_root/sq/csq35czz7htox3w52ecvjrbcvzsqngfudv5ffs5butcohw6fh5zz.py":28:28)
#loc14 = loc("/tmp/torchinductor_root/sq/csq35czz7htox3w52ecvjrbcvzsqngfudv5ffs5butcohw6fh5zz.py":28:39)
#loc15 = loc("/tmp/torchinductor_root/sq/csq35czz7htox3w52ecvjrbcvzsqngfudv5ffs5butcohw6fh5zz.py":28:4)
#loc19 = loc("xnumel"(#loc1))
#loc20 = loc("xoffset"(#loc2))
#loc21 = loc("xoffset"(#loc3))
#loc22 = loc("xindex"(#loc4))
#loc23 = loc("xindex"(#loc5))
#loc24 = loc("xmask"(#loc6))
#loc25 = loc("tmp0"(#loc7))
#loc26 = loc("tmp0"(#loc8))
#loc27 = loc("tmp1"(#loc9))
#loc28 = loc("tmp1"(#loc10))
#loc29 = loc("tmp2"(#loc11))
#loc30 = loc("tmp3"(#loc12))
