#loc = loc("/tmp/torchinductor_root/xn/cxnatbqdq57ds2z4jojp4iejmdcdg7gdhy7bwknbmwlqytpodeek.py":18:0)
#loc18 = loc("in_ptr0"(#loc))
#loc19 = loc("out_ptr0"(#loc))
#loc20 = loc("out_ptr1"(#loc))
#loc21 = loc("xnumel"(#loc))
module {
  tt.func public @triton_poi_fused__scaled_dot_product_efficient_attention__to_copy_expand_mul_permute_rsub_unsqueeze_view_4(%in_ptr0: !tt.ptr<i64> {tt.divisibility = 16 : i32} loc("in_ptr0"(#loc)), %out_ptr0: !tt.ptr<f32> {tt.divisibility = 16 : i32} loc("out_ptr0"(#loc)), %out_ptr1: !tt.ptr<f32> {tt.divisibility = 16 : i32} loc("out_ptr1"(#loc)), %xnumel: i32 {tt.divisibility = 16 : i32} loc("xnumel"(#loc))) attributes {noinline = false} {
    %tmp5 = arith.constant dense<-3.40282347E+38> : tensor<256xf32> loc(#loc22)
    %tmp3 = arith.constant dense<1.000000e+00> : tensor<256xf32> loc(#loc23)
    %x0 = arith.constant dense<16> : tensor<256xi32> loc(#loc24)
    %xmask = arith.constant dense<256> : tensor<256xi32> loc(#loc25)
    %c256_i32 = arith.constant 256 : i32 loc(#loc5)
    %xoffset = tt.get_program_id x : i32 loc(#loc26)
    %xoffset_0 = arith.muli %xoffset, %c256_i32 : i32 loc(#loc27)
    %xindex = tt.make_range {end = 256 : i32, start = 0 : i32} : tensor<256xi32> loc(#loc28)
    %xindex_1 = tt.splat %xoffset_0 : i32 -> tensor<256xi32> loc(#loc29)
    %xindex_2 = arith.addi %xindex_1, %xindex : tensor<256xi32> loc(#loc29)
    %xmask_3 = arith.cmpi slt, %xindex_2, %xmask : tensor<256xi32> loc(#loc25)
    %x0_4 = arith.remsi %xindex_2, %x0 : tensor<256xi32> loc(#loc24)
    %tmp0 = tt.splat %in_ptr0 : !tt.ptr<i64> -> tensor<256x!tt.ptr<i64>> loc(#loc30)
    %tmp0_5 = tt.addptr %tmp0, %x0_4 : tensor<256x!tt.ptr<i64>>, tensor<256xi32> loc(#loc30)
    %tmp0_6 = tt.load %tmp0_5, %xmask_3 evictionPolicy = evict_last : tensor<256x!tt.ptr<i64>> loc(#loc31)
    %tmp1 = arith.sitofp %tmp0_6 : tensor<256xi64> to tensor<256xf32> loc(#loc32)
    %tmp3_7 = arith.subf %tmp3, %tmp1 : tensor<256xf32> loc(#loc23)
    %tmp5_8 = arith.mulf %tmp3_7, %tmp5 : tensor<256xf32> loc(#loc22)
    %0 = tt.splat %out_ptr0 : !tt.ptr<f32> -> tensor<256x!tt.ptr<f32>> loc(#loc13)
    %1 = tt.addptr %0, %xindex_2 : tensor<256x!tt.ptr<f32>>, tensor<256xi32> loc(#loc13)
    tt.store %1, %tmp5_8, %xmask_3 : tensor<256x!tt.ptr<f32>> loc(#loc14)
    %2 = tt.splat %out_ptr1 : !tt.ptr<f32> -> tensor<256x!tt.ptr<f32>> loc(#loc15)
    %3 = tt.addptr %2, %xindex_2 : tensor<256x!tt.ptr<f32>>, tensor<256xi32> loc(#loc15)
    tt.store %3, %tmp5_8, %xmask_3 : tensor<256x!tt.ptr<f32>> loc(#loc16)
    tt.return loc(#loc17)
  } loc(#loc)
} loc(#loc)
#loc1 = loc("/tmp/torchinductor_root/xn/cxnatbqdq57ds2z4jojp4iejmdcdg7gdhy7bwknbmwlqytpodeek.py":30:18)
#loc2 = loc("/tmp/torchinductor_root/xn/cxnatbqdq57ds2z4jojp4iejmdcdg7gdhy7bwknbmwlqytpodeek.py":28:18)
#loc3 = loc("/tmp/torchinductor_root/xn/cxnatbqdq57ds2z4jojp4iejmdcdg7gdhy7bwknbmwlqytpodeek.py":23:19)
#loc4 = loc("/tmp/torchinductor_root/xn/cxnatbqdq57ds2z4jojp4iejmdcdg7gdhy7bwknbmwlqytpodeek.py":22:21)
#loc5 = loc(unknown)
#loc6 = loc("/tmp/torchinductor_root/xn/cxnatbqdq57ds2z4jojp4iejmdcdg7gdhy7bwknbmwlqytpodeek.py":20:28)
#loc7 = loc("/tmp/torchinductor_root/xn/cxnatbqdq57ds2z4jojp4iejmdcdg7gdhy7bwknbmwlqytpodeek.py":20:33)
#loc8 = loc("/tmp/torchinductor_root/xn/cxnatbqdq57ds2z4jojp4iejmdcdg7gdhy7bwknbmwlqytpodeek.py":21:36)
#loc9 = loc("/tmp/torchinductor_root/xn/cxnatbqdq57ds2z4jojp4iejmdcdg7gdhy7bwknbmwlqytpodeek.py":21:23)
#loc10 = loc("/tmp/torchinductor_root/xn/cxnatbqdq57ds2z4jojp4iejmdcdg7gdhy7bwknbmwlqytpodeek.py":25:30)
#loc11 = loc("/tmp/torchinductor_root/xn/cxnatbqdq57ds2z4jojp4iejmdcdg7gdhy7bwknbmwlqytpodeek.py":25:35)
#loc12 = loc("/tmp/torchinductor_root/xn/cxnatbqdq57ds2z4jojp4iejmdcdg7gdhy7bwknbmwlqytpodeek.py":26:19)
#loc13 = loc("/tmp/torchinductor_root/xn/cxnatbqdq57ds2z4jojp4iejmdcdg7gdhy7bwknbmwlqytpodeek.py":31:25)
#loc14 = loc("/tmp/torchinductor_root/xn/cxnatbqdq57ds2z4jojp4iejmdcdg7gdhy7bwknbmwlqytpodeek.py":31:36)
#loc15 = loc("/tmp/torchinductor_root/xn/cxnatbqdq57ds2z4jojp4iejmdcdg7gdhy7bwknbmwlqytpodeek.py":32:25)
#loc16 = loc("/tmp/torchinductor_root/xn/cxnatbqdq57ds2z4jojp4iejmdcdg7gdhy7bwknbmwlqytpodeek.py":32:36)
#loc17 = loc("/tmp/torchinductor_root/xn/cxnatbqdq57ds2z4jojp4iejmdcdg7gdhy7bwknbmwlqytpodeek.py":32:4)
#loc22 = loc("tmp5"(#loc1))
#loc23 = loc("tmp3"(#loc2))
#loc24 = loc("x0"(#loc3))
#loc25 = loc("xmask"(#loc4))
#loc26 = loc("xoffset"(#loc6))
#loc27 = loc("xoffset"(#loc7))
#loc28 = loc("xindex"(#loc8))
#loc29 = loc("xindex"(#loc9))
#loc30 = loc("tmp0"(#loc10))
#loc31 = loc("tmp0"(#loc11))
#loc32 = loc("tmp1"(#loc12))
