#loc = loc("/tmp/torchinductor_root/xn/cxnatbqdq57ds2z4jojp4iejmdcdg7gdhy7bwknbmwlqytpodeek.py":18:0)
#loc20 = loc("in_ptr0"(#loc))
#loc21 = loc("out_ptr0"(#loc))
#loc22 = loc("out_ptr1"(#loc))
#loc23 = loc("xnumel"(#loc))
module {
  tt.func public @triton_poi_fused__scaled_dot_product_efficient_attention__to_copy_expand_mul_permute_rsub_unsqueeze_view_4(%in_ptr0: !tt.ptr<i64> {tt.divisibility = 16 : i32} loc("in_ptr0"(#loc)), %out_ptr0: !tt.ptr<f32> {tt.divisibility = 16 : i32} loc("out_ptr0"(#loc)), %out_ptr1: !tt.ptr<f32> {tt.divisibility = 16 : i32} loc("out_ptr1"(#loc)), %xnumel: i32 {tt.divisibility = 16 : i32} loc("xnumel"(#loc))) attributes {noinline = false} {
    %xnumel_0 = arith.constant 256 : i32 loc(#loc24)
    %xoffset = tt.get_program_id x : i32 loc(#loc25)
    %xoffset_1 = arith.constant 256 : i32 loc(#loc26)
    %xoffset_2 = arith.constant 256 : i32 loc(#loc26)
    %xoffset_3 = arith.muli %xoffset, %xoffset_2 : i32 loc(#loc26)
    %xindex = tt.make_range {end = 256 : i32, start = 0 : i32} : tensor<256xi32> loc(#loc27)
    %xindex_4 = tt.splat %xoffset_3 : i32 -> tensor<256xi32> loc(#loc28)
    %xindex_5 = arith.addi %xindex_4, %xindex : tensor<256xi32> loc(#loc28)
    %xmask = arith.constant dense<256> : tensor<256xi32> loc(#loc29)
    %xmask_6 = arith.cmpi slt, %xindex_5, %xmask : tensor<256xi32> loc(#loc29)
    %x0 = arith.constant 16 : i32 loc(#loc30)
    %x0_7 = arith.constant 16 : i32 loc(#loc30)
    %x0_8 = arith.constant dense<16> : tensor<256xi32> loc(#loc30)
    %x0_9 = arith.remsi %xindex_5, %x0_8 : tensor<256xi32> loc(#loc30)
    %tmp0 = tt.splat %in_ptr0 : !tt.ptr<i64> -> tensor<256x!tt.ptr<i64>> loc(#loc31)
    %tmp0_10 = tt.addptr %tmp0, %x0_9 : tensor<256x!tt.ptr<i64>>, tensor<256xi32> loc(#loc31)
    %tmp0_11 = tt.load %tmp0_10, %xmask_6 evictionPolicy = evict_last : tensor<256x!tt.ptr<i64>> loc(#loc32)
    %tmp1 = arith.sitofp %tmp0_11 : tensor<256xi64> to tensor<256xf32> loc(#loc33)
    %tmp2 = arith.constant 1.000000e+00 : f32 loc(#loc34)
    %tmp3 = arith.constant dense<1.000000e+00> : tensor<256xf32> loc(#loc35)
    %tmp3_12 = arith.subf %tmp3, %tmp1 : tensor<256xf32> loc(#loc35)
    %tmp4 = arith.constant -3.40282347E+38 : f32 loc(#loc36)
    %tmp5 = arith.constant dense<-3.40282347E+38> : tensor<256xf32> loc(#loc37)
    %tmp5_13 = arith.mulf %tmp3_12, %tmp5 : tensor<256xf32> loc(#loc37)
    %0 = tt.splat %out_ptr0 : !tt.ptr<f32> -> tensor<256x!tt.ptr<f32>> loc(#loc15)
    %1 = tt.addptr %0, %xindex_5 : tensor<256x!tt.ptr<f32>>, tensor<256xi32> loc(#loc15)
    tt.store %1, %tmp5_13, %xmask_6 : tensor<256x!tt.ptr<f32>> loc(#loc16)
    %2 = tt.splat %out_ptr1 : !tt.ptr<f32> -> tensor<256x!tt.ptr<f32>> loc(#loc17)
    %3 = tt.addptr %2, %xindex_5 : tensor<256x!tt.ptr<f32>>, tensor<256xi32> loc(#loc17)
    tt.store %3, %tmp5_13, %xmask_6 : tensor<256x!tt.ptr<f32>> loc(#loc18)
    tt.return loc(#loc19)
  } loc(#loc)
} loc(#loc)
#loc1 = loc("/tmp/torchinductor_root/xn/cxnatbqdq57ds2z4jojp4iejmdcdg7gdhy7bwknbmwlqytpodeek.py":19:13)
#loc2 = loc("/tmp/torchinductor_root/xn/cxnatbqdq57ds2z4jojp4iejmdcdg7gdhy7bwknbmwlqytpodeek.py":20:28)
#loc3 = loc("/tmp/torchinductor_root/xn/cxnatbqdq57ds2z4jojp4iejmdcdg7gdhy7bwknbmwlqytpodeek.py":20:33)
#loc4 = loc("/tmp/torchinductor_root/xn/cxnatbqdq57ds2z4jojp4iejmdcdg7gdhy7bwknbmwlqytpodeek.py":21:36)
#loc5 = loc("/tmp/torchinductor_root/xn/cxnatbqdq57ds2z4jojp4iejmdcdg7gdhy7bwknbmwlqytpodeek.py":21:23)
#loc6 = loc("/tmp/torchinductor_root/xn/cxnatbqdq57ds2z4jojp4iejmdcdg7gdhy7bwknbmwlqytpodeek.py":22:21)
#loc7 = loc("/tmp/torchinductor_root/xn/cxnatbqdq57ds2z4jojp4iejmdcdg7gdhy7bwknbmwlqytpodeek.py":23:19)
#loc8 = loc("/tmp/torchinductor_root/xn/cxnatbqdq57ds2z4jojp4iejmdcdg7gdhy7bwknbmwlqytpodeek.py":25:30)
#loc9 = loc("/tmp/torchinductor_root/xn/cxnatbqdq57ds2z4jojp4iejmdcdg7gdhy7bwknbmwlqytpodeek.py":25:35)
#loc10 = loc("/tmp/torchinductor_root/xn/cxnatbqdq57ds2z4jojp4iejmdcdg7gdhy7bwknbmwlqytpodeek.py":26:19)
#loc11 = loc("/tmp/torchinductor_root/xn/cxnatbqdq57ds2z4jojp4iejmdcdg7gdhy7bwknbmwlqytpodeek.py":27:11)
#loc12 = loc("/tmp/torchinductor_root/xn/cxnatbqdq57ds2z4jojp4iejmdcdg7gdhy7bwknbmwlqytpodeek.py":28:18)
#loc13 = loc("/tmp/torchinductor_root/xn/cxnatbqdq57ds2z4jojp4iejmdcdg7gdhy7bwknbmwlqytpodeek.py":29:11)
#loc14 = loc("/tmp/torchinductor_root/xn/cxnatbqdq57ds2z4jojp4iejmdcdg7gdhy7bwknbmwlqytpodeek.py":30:18)
#loc15 = loc("/tmp/torchinductor_root/xn/cxnatbqdq57ds2z4jojp4iejmdcdg7gdhy7bwknbmwlqytpodeek.py":31:25)
#loc16 = loc("/tmp/torchinductor_root/xn/cxnatbqdq57ds2z4jojp4iejmdcdg7gdhy7bwknbmwlqytpodeek.py":31:36)
#loc17 = loc("/tmp/torchinductor_root/xn/cxnatbqdq57ds2z4jojp4iejmdcdg7gdhy7bwknbmwlqytpodeek.py":32:25)
#loc18 = loc("/tmp/torchinductor_root/xn/cxnatbqdq57ds2z4jojp4iejmdcdg7gdhy7bwknbmwlqytpodeek.py":32:36)
#loc19 = loc("/tmp/torchinductor_root/xn/cxnatbqdq57ds2z4jojp4iejmdcdg7gdhy7bwknbmwlqytpodeek.py":32:4)
#loc24 = loc("xnumel"(#loc1))
#loc25 = loc("xoffset"(#loc2))
#loc26 = loc("xoffset"(#loc3))
#loc27 = loc("xindex"(#loc4))
#loc28 = loc("xindex"(#loc5))
#loc29 = loc("xmask"(#loc6))
#loc30 = loc("x0"(#loc7))
#loc31 = loc("tmp0"(#loc8))
#loc32 = loc("tmp0"(#loc9))
#loc33 = loc("tmp1"(#loc10))
#loc34 = loc("tmp2"(#loc11))
#loc35 = loc("tmp3"(#loc12))
#loc36 = loc("tmp4"(#loc13))
#loc37 = loc("tmp5"(#loc14))
