#loc = loc("/tmp/torchinductor_root/5v/c5vw5gqmkyzju7rmekpadwwadsvjuu43nwarntzmwcassddiqwzw.py":18:0)
#loc24 = loc("in_ptr0"(#loc))
#loc25 = loc("out_ptr0"(#loc))
#loc26 = loc("out_ptr1"(#loc))
#loc27 = loc("out_ptr2"(#loc))
#loc28 = loc("out_ptr3"(#loc))
#loc29 = loc("out_ptr4"(#loc))
#loc30 = loc("xnumel"(#loc))
module {
  tt.func public @triton_poi_fused__scaled_dot_product_efficient_attention__to_copy_expand_mul_permute_rsub_unsqueeze_view_1(%in_ptr0: !tt.ptr<i64> {tt.divisibility = 16 : i32} loc("in_ptr0"(#loc)), %out_ptr0: !tt.ptr<f32> {tt.divisibility = 16 : i32} loc("out_ptr0"(#loc)), %out_ptr1: !tt.ptr<f32> {tt.divisibility = 16 : i32} loc("out_ptr1"(#loc)), %out_ptr2: !tt.ptr<f32> {tt.divisibility = 16 : i32} loc("out_ptr2"(#loc)), %out_ptr3: !tt.ptr<f32> {tt.divisibility = 16 : i32} loc("out_ptr3"(#loc)), %out_ptr4: !tt.ptr<f32> {tt.divisibility = 16 : i32} loc("out_ptr4"(#loc)), %xnumel: i32 {tt.divisibility = 16 : i32} loc("xnumel"(#loc))) attributes {noinline = false} {
    %tmp5 = arith.constant dense<-3.40282347E+38> : tensor<128xf32> loc(#loc31)
    %tmp3 = arith.constant dense<1.000000e+00> : tensor<128xf32> loc(#loc32)
    %x0 = arith.constant dense<16> : tensor<128xi32> loc(#loc33)
    %xmask = arith.constant dense<256> : tensor<128xi32> loc(#loc34)
    %c128_i32 = arith.constant 128 : i32 loc(#loc5)
    %xoffset = tt.get_program_id x : i32 loc(#loc35)
    %xoffset_0 = arith.muli %xoffset, %c128_i32 : i32 loc(#loc36)
    %xindex = tt.make_range {end = 128 : i32, start = 0 : i32} : tensor<128xi32> loc(#loc37)
    %xindex_1 = tt.splat %xoffset_0 : i32 -> tensor<128xi32> loc(#loc38)
    %xindex_2 = arith.addi %xindex_1, %xindex : tensor<128xi32> loc(#loc38)
    %xmask_3 = arith.cmpi slt, %xindex_2, %xmask : tensor<128xi32> loc(#loc34)
    %x0_4 = arith.remsi %xindex_2, %x0 : tensor<128xi32> loc(#loc33)
    %tmp0 = tt.splat %in_ptr0 : !tt.ptr<i64> -> tensor<128x!tt.ptr<i64>> loc(#loc39)
    %tmp0_5 = tt.addptr %tmp0, %x0_4 : tensor<128x!tt.ptr<i64>>, tensor<128xi32> loc(#loc39)
    %tmp0_6 = tt.load %tmp0_5, %xmask_3 evictionPolicy = evict_last : tensor<128x!tt.ptr<i64>> loc(#loc40)
    %tmp1 = arith.sitofp %tmp0_6 : tensor<128xi64> to tensor<128xf32> loc(#loc41)
    %tmp3_7 = arith.subf %tmp3, %tmp1 : tensor<128xf32> loc(#loc32)
    %tmp5_8 = arith.mulf %tmp3_7, %tmp5 : tensor<128xf32> loc(#loc31)
    %0 = tt.splat %out_ptr0 : !tt.ptr<f32> -> tensor<128x!tt.ptr<f32>> loc(#loc13)
    %1 = tt.addptr %0, %xindex_2 : tensor<128x!tt.ptr<f32>>, tensor<128xi32> loc(#loc13)
    tt.store %1, %tmp5_8, %xmask_3 : tensor<128x!tt.ptr<f32>> loc(#loc14)
    %2 = tt.splat %out_ptr1 : !tt.ptr<f32> -> tensor<128x!tt.ptr<f32>> loc(#loc15)
    %3 = tt.addptr %2, %xindex_2 : tensor<128x!tt.ptr<f32>>, tensor<128xi32> loc(#loc15)
    tt.store %3, %tmp5_8, %xmask_3 : tensor<128x!tt.ptr<f32>> loc(#loc16)
    %4 = tt.splat %out_ptr2 : !tt.ptr<f32> -> tensor<128x!tt.ptr<f32>> loc(#loc17)
    %5 = tt.addptr %4, %xindex_2 : tensor<128x!tt.ptr<f32>>, tensor<128xi32> loc(#loc17)
    tt.store %5, %tmp5_8, %xmask_3 : tensor<128x!tt.ptr<f32>> loc(#loc18)
    %6 = tt.splat %out_ptr3 : !tt.ptr<f32> -> tensor<128x!tt.ptr<f32>> loc(#loc19)
    %7 = tt.addptr %6, %xindex_2 : tensor<128x!tt.ptr<f32>>, tensor<128xi32> loc(#loc19)
    tt.store %7, %tmp5_8, %xmask_3 : tensor<128x!tt.ptr<f32>> loc(#loc20)
    %8 = tt.splat %out_ptr4 : !tt.ptr<f32> -> tensor<128x!tt.ptr<f32>> loc(#loc21)
    %9 = tt.addptr %8, %xindex_2 : tensor<128x!tt.ptr<f32>>, tensor<128xi32> loc(#loc21)
    tt.store %9, %tmp5_8, %xmask_3 : tensor<128x!tt.ptr<f32>> loc(#loc22)
    tt.return loc(#loc23)
  } loc(#loc)
} loc(#loc)
#loc1 = loc("/tmp/torchinductor_root/5v/c5vw5gqmkyzju7rmekpadwwadsvjuu43nwarntzmwcassddiqwzw.py":30:18)
#loc2 = loc("/tmp/torchinductor_root/5v/c5vw5gqmkyzju7rmekpadwwadsvjuu43nwarntzmwcassddiqwzw.py":28:18)
#loc3 = loc("/tmp/torchinductor_root/5v/c5vw5gqmkyzju7rmekpadwwadsvjuu43nwarntzmwcassddiqwzw.py":23:19)
#loc4 = loc("/tmp/torchinductor_root/5v/c5vw5gqmkyzju7rmekpadwwadsvjuu43nwarntzmwcassddiqwzw.py":22:21)
#loc5 = loc(unknown)
#loc6 = loc("/tmp/torchinductor_root/5v/c5vw5gqmkyzju7rmekpadwwadsvjuu43nwarntzmwcassddiqwzw.py":20:28)
#loc7 = loc("/tmp/torchinductor_root/5v/c5vw5gqmkyzju7rmekpadwwadsvjuu43nwarntzmwcassddiqwzw.py":20:33)
#loc8 = loc("/tmp/torchinductor_root/5v/c5vw5gqmkyzju7rmekpadwwadsvjuu43nwarntzmwcassddiqwzw.py":21:36)
#loc9 = loc("/tmp/torchinductor_root/5v/c5vw5gqmkyzju7rmekpadwwadsvjuu43nwarntzmwcassddiqwzw.py":21:23)
#loc10 = loc("/tmp/torchinductor_root/5v/c5vw5gqmkyzju7rmekpadwwadsvjuu43nwarntzmwcassddiqwzw.py":25:30)
#loc11 = loc("/tmp/torchinductor_root/5v/c5vw5gqmkyzju7rmekpadwwadsvjuu43nwarntzmwcassddiqwzw.py":25:35)
#loc12 = loc("/tmp/torchinductor_root/5v/c5vw5gqmkyzju7rmekpadwwadsvjuu43nwarntzmwcassddiqwzw.py":26:19)
#loc13 = loc("/tmp/torchinductor_root/5v/c5vw5gqmkyzju7rmekpadwwadsvjuu43nwarntzmwcassddiqwzw.py":31:25)
#loc14 = loc("/tmp/torchinductor_root/5v/c5vw5gqmkyzju7rmekpadwwadsvjuu43nwarntzmwcassddiqwzw.py":31:36)
#loc15 = loc("/tmp/torchinductor_root/5v/c5vw5gqmkyzju7rmekpadwwadsvjuu43nwarntzmwcassddiqwzw.py":32:25)
#loc16 = loc("/tmp/torchinductor_root/5v/c5vw5gqmkyzju7rmekpadwwadsvjuu43nwarntzmwcassddiqwzw.py":32:36)
#loc17 = loc("/tmp/torchinductor_root/5v/c5vw5gqmkyzju7rmekpadwwadsvjuu43nwarntzmwcassddiqwzw.py":33:25)
#loc18 = loc("/tmp/torchinductor_root/5v/c5vw5gqmkyzju7rmekpadwwadsvjuu43nwarntzmwcassddiqwzw.py":33:36)
#loc19 = loc("/tmp/torchinductor_root/5v/c5vw5gqmkyzju7rmekpadwwadsvjuu43nwarntzmwcassddiqwzw.py":34:25)
#loc20 = loc("/tmp/torchinductor_root/5v/c5vw5gqmkyzju7rmekpadwwadsvjuu43nwarntzmwcassddiqwzw.py":34:36)
#loc21 = loc("/tmp/torchinductor_root/5v/c5vw5gqmkyzju7rmekpadwwadsvjuu43nwarntzmwcassddiqwzw.py":35:25)
#loc22 = loc("/tmp/torchinductor_root/5v/c5vw5gqmkyzju7rmekpadwwadsvjuu43nwarntzmwcassddiqwzw.py":35:36)
#loc23 = loc("/tmp/torchinductor_root/5v/c5vw5gqmkyzju7rmekpadwwadsvjuu43nwarntzmwcassddiqwzw.py":35:4)
#loc31 = loc("tmp5"(#loc1))
#loc32 = loc("tmp3"(#loc2))
#loc33 = loc("x0"(#loc3))
#loc34 = loc("xmask"(#loc4))
#loc35 = loc("xoffset"(#loc6))
#loc36 = loc("xoffset"(#loc7))
#loc37 = loc("xindex"(#loc8))
#loc38 = loc("xindex"(#loc9))
#loc39 = loc("tmp0"(#loc10))
#loc40 = loc("tmp0"(#loc11))
#loc41 = loc("tmp1"(#loc12))
