#loc = loc("/workspace/Documents/pytorch2_wjk/impnet/inductor_cache/qw/cqwz7mwg3rwy7xcxwelhvikcyvx3ejv7wxshnp7las2v34ugxxru.py":18:0)
#loc28 = loc("in_out_ptr0"(#loc))
#loc29 = loc("in_ptr0"(#loc))
#loc30 = loc("in_ptr1"(#loc))
#loc31 = loc("xnumel"(#loc))
module {
  tt.func public @triton_poi_fused_add_addmm_fill_full_like_lift_fresh_mul_rsub_select_3(%in_out_ptr0: !tt.ptr<f32> {tt.divisibility = 16 : i32} loc("in_out_ptr0"(#loc)), %in_ptr0: !tt.ptr<f32> {tt.divisibility = 16 : i32} loc("in_ptr0"(#loc)), %in_ptr1: !tt.ptr<f32> {tt.divisibility = 16 : i32} loc("in_ptr1"(#loc)), %xnumel: i32 loc("xnumel"(#loc))) attributes {noinline = false} {
    %xnumel_0 = arith.constant 2 : i32 loc(#loc32)
    %xoffset = tt.get_program_id x : i32 loc(#loc33)
    %xoffset_1 = arith.constant 2 : i32 loc(#loc34)
    %xoffset_2 = arith.constant 2 : i32 loc(#loc34)
    %xoffset_3 = arith.muli %xoffset, %xoffset_2 : i32 loc(#loc34)
    %xindex = tt.make_range {end = 2 : i32, start = 0 : i32} : tensor<2xi32> loc(#loc35)
    %xindex_4 = tt.splat %xoffset_3 : i32 -> tensor<2xi32> loc(#loc36)
    %xindex_5 = arith.addi %xindex_4, %xindex : tensor<2xi32> loc(#loc36)
    %xmask = arith.constant dense<2> : tensor<2xi32> loc(#loc37)
    %xmask_6 = arith.cmpi slt, %xindex_5, %xmask : tensor<2xi32> loc(#loc37)
    %tmp0 = arith.constant 0 : i32 loc(#loc38)
    %tmp0_7 = tt.addptr %in_ptr0, %tmp0 : !tt.ptr<f32>, i32 loc(#loc38)
    %tmp0_8 = tt.load %tmp0_7 : !tt.ptr<f32> loc(#loc39)
    %tmp1 = tt.splat %tmp0_8 : f32 -> tensor<2xf32> loc(#loc40)
    %tmp11 = tt.splat %in_ptr1 : !tt.ptr<f32> -> tensor<2x!tt.ptr<f32>> loc(#loc41)
    %tmp11_9 = tt.addptr %tmp11, %xindex_5 : tensor<2x!tt.ptr<f32>>, tensor<2xi32> loc(#loc41)
    %tmp11_10 = tt.load %tmp11_9, %xmask_6 : tensor<2x!tt.ptr<f32>> loc(#loc42)
    %tmp12 = tt.splat %in_out_ptr0 : !tt.ptr<f32> -> tensor<2x!tt.ptr<f32>> loc(#loc43)
    %tmp12_11 = tt.addptr %tmp12, %xindex_5 : tensor<2x!tt.ptr<f32>>, tensor<2xi32> loc(#loc43)
    %tmp12_12 = tt.load %tmp12_11, %xmask_6 : tensor<2x!tt.ptr<f32>> loc(#loc44)
    %tmp3 = arith.constant 1 : i32 loc(#loc45)
    %tmp3_13 = arith.constant dense<1> : tensor<1xi32> loc(#loc45)
    %tmp4 = arith.constant dense<1> : tensor<2xi32> loc(#loc46)
    %tmp4_14 = arith.cmpi eq, %xindex_5, %tmp4 : tensor<2xi32> loc(#loc46)
    %tmp5 = arith.constant 1.000000e+02 : f32 loc(#loc47)
    %tmp6 = arith.constant -1.000000e+02 : f32 loc(#loc48)
    %tmp7 = arith.constant dense<1.000000e+02> : tensor<2xf32> loc(#loc49)
    %tmp7_15 = arith.constant dense<-1.000000e+02> : tensor<2xf32> loc(#loc49)
    %tmp7_16 = arith.select %tmp4_14, %tmp7, %tmp7_15 : tensor<2xi1>, tensor<2xf32> loc(#loc49)
    %tmp8 = arith.mulf %tmp1, %tmp7_16 : tensor<2xf32> loc(#loc50)
    %tmp9 = arith.constant 1.000000e+00 : f32 loc(#loc51)
    %tmp10 = arith.constant dense<1.000000e+00> : tensor<2xf32> loc(#loc52)
    %tmp10_17 = arith.subf %tmp10, %tmp1 : tensor<2xf32> loc(#loc52)
    %tmp13 = arith.addf %tmp11_10, %tmp12_12 : tensor<2xf32> loc(#loc53)
    %tmp14 = arith.mulf %tmp10_17, %tmp13 : tensor<2xf32> loc(#loc54)
    %tmp15 = arith.addf %tmp8, %tmp14 : tensor<2xf32> loc(#loc55)
    %0 = tt.splat %in_out_ptr0 : !tt.ptr<f32> -> tensor<2x!tt.ptr<f32>> loc(#loc25)
    %1 = tt.addptr %0, %xindex_5 : tensor<2x!tt.ptr<f32>>, tensor<2xi32> loc(#loc25)
    tt.store %1, %tmp15, %xmask_6 : tensor<2x!tt.ptr<f32>> loc(#loc26)
    tt.return loc(#loc27)
  } loc(#loc)
} loc(#loc)
#loc1 = loc("/workspace/Documents/pytorch2_wjk/impnet/inductor_cache/qw/cqwz7mwg3rwy7xcxwelhvikcyvx3ejv7wxshnp7las2v34ugxxru.py":19:13)
#loc2 = loc("/workspace/Documents/pytorch2_wjk/impnet/inductor_cache/qw/cqwz7mwg3rwy7xcxwelhvikcyvx3ejv7wxshnp7las2v34ugxxru.py":20:28)
#loc3 = loc("/workspace/Documents/pytorch2_wjk/impnet/inductor_cache/qw/cqwz7mwg3rwy7xcxwelhvikcyvx3ejv7wxshnp7las2v34ugxxru.py":20:33)
#loc4 = loc("/workspace/Documents/pytorch2_wjk/impnet/inductor_cache/qw/cqwz7mwg3rwy7xcxwelhvikcyvx3ejv7wxshnp7las2v34ugxxru.py":21:36)
#loc5 = loc("/workspace/Documents/pytorch2_wjk/impnet/inductor_cache/qw/cqwz7mwg3rwy7xcxwelhvikcyvx3ejv7wxshnp7las2v34ugxxru.py":21:23)
#loc6 = loc("/workspace/Documents/pytorch2_wjk/impnet/inductor_cache/qw/cqwz7mwg3rwy7xcxwelhvikcyvx3ejv7wxshnp7las2v34ugxxru.py":22:21)
#loc7 = loc("/workspace/Documents/pytorch2_wjk/impnet/inductor_cache/qw/cqwz7mwg3rwy7xcxwelhvikcyvx3ejv7wxshnp7las2v34ugxxru.py":24:30)
#loc8 = loc("/workspace/Documents/pytorch2_wjk/impnet/inductor_cache/qw/cqwz7mwg3rwy7xcxwelhvikcyvx3ejv7wxshnp7las2v34ugxxru.py":24:19)
#loc9 = loc("/workspace/Documents/pytorch2_wjk/impnet/inductor_cache/qw/cqwz7mwg3rwy7xcxwelhvikcyvx3ejv7wxshnp7las2v34ugxxru.py":25:33)
#loc10 = loc("/workspace/Documents/pytorch2_wjk/impnet/inductor_cache/qw/cqwz7mwg3rwy7xcxwelhvikcyvx3ejv7wxshnp7las2v34ugxxru.py":26:31)
#loc11 = loc("/workspace/Documents/pytorch2_wjk/impnet/inductor_cache/qw/cqwz7mwg3rwy7xcxwelhvikcyvx3ejv7wxshnp7las2v34ugxxru.py":26:36)
#loc12 = loc("/workspace/Documents/pytorch2_wjk/impnet/inductor_cache/qw/cqwz7mwg3rwy7xcxwelhvikcyvx3ejv7wxshnp7las2v34ugxxru.py":27:35)
#loc13 = loc("/workspace/Documents/pytorch2_wjk/impnet/inductor_cache/qw/cqwz7mwg3rwy7xcxwelhvikcyvx3ejv7wxshnp7las2v34ugxxru.py":27:40)
#loc14 = loc("/workspace/Documents/pytorch2_wjk/impnet/inductor_cache/qw/cqwz7mwg3rwy7xcxwelhvikcyvx3ejv7wxshnp7las2v34ugxxru.py":29:27)
#loc15 = loc("/workspace/Documents/pytorch2_wjk/impnet/inductor_cache/qw/cqwz7mwg3rwy7xcxwelhvikcyvx3ejv7wxshnp7las2v34ugxxru.py":30:19)
#loc16 = loc("/workspace/Documents/pytorch2_wjk/impnet/inductor_cache/qw/cqwz7mwg3rwy7xcxwelhvikcyvx3ejv7wxshnp7las2v34ugxxru.py":31:11)
#loc17 = loc("/workspace/Documents/pytorch2_wjk/impnet/inductor_cache/qw/cqwz7mwg3rwy7xcxwelhvikcyvx3ejv7wxshnp7las2v34ugxxru.py":32:11)
#loc18 = loc("/workspace/Documents/pytorch2_wjk/impnet/inductor_cache/qw/cqwz7mwg3rwy7xcxwelhvikcyvx3ejv7wxshnp7las2v34ugxxru.py":33:32)
#loc19 = loc("/workspace/Documents/pytorch2_wjk/impnet/inductor_cache/qw/cqwz7mwg3rwy7xcxwelhvikcyvx3ejv7wxshnp7las2v34ugxxru.py":34:18)
#loc20 = loc("/workspace/Documents/pytorch2_wjk/impnet/inductor_cache/qw/cqwz7mwg3rwy7xcxwelhvikcyvx3ejv7wxshnp7las2v34ugxxru.py":35:11)
#loc21 = loc("/workspace/Documents/pytorch2_wjk/impnet/inductor_cache/qw/cqwz7mwg3rwy7xcxwelhvikcyvx3ejv7wxshnp7las2v34ugxxru.py":36:19)
#loc22 = loc("/workspace/Documents/pytorch2_wjk/impnet/inductor_cache/qw/cqwz7mwg3rwy7xcxwelhvikcyvx3ejv7wxshnp7las2v34ugxxru.py":37:20)
#loc23 = loc("/workspace/Documents/pytorch2_wjk/impnet/inductor_cache/qw/cqwz7mwg3rwy7xcxwelhvikcyvx3ejv7wxshnp7las2v34ugxxru.py":38:20)
#loc24 = loc("/workspace/Documents/pytorch2_wjk/impnet/inductor_cache/qw/cqwz7mwg3rwy7xcxwelhvikcyvx3ejv7wxshnp7las2v34ugxxru.py":39:19)
#loc25 = loc("/workspace/Documents/pytorch2_wjk/impnet/inductor_cache/qw/cqwz7mwg3rwy7xcxwelhvikcyvx3ejv7wxshnp7las2v34ugxxru.py":40:28)
#loc26 = loc("/workspace/Documents/pytorch2_wjk/impnet/inductor_cache/qw/cqwz7mwg3rwy7xcxwelhvikcyvx3ejv7wxshnp7las2v34ugxxru.py":40:40)
#loc27 = loc("/workspace/Documents/pytorch2_wjk/impnet/inductor_cache/qw/cqwz7mwg3rwy7xcxwelhvikcyvx3ejv7wxshnp7las2v34ugxxru.py":40:4)
#loc32 = loc("xnumel"(#loc1))
#loc33 = loc("xoffset"(#loc2))
#loc34 = loc("xoffset"(#loc3))
#loc35 = loc("xindex"(#loc4))
#loc36 = loc("xindex"(#loc5))
#loc37 = loc("xmask"(#loc6))
#loc38 = loc("tmp0"(#loc7))
#loc39 = loc("tmp0"(#loc8))
#loc40 = loc("tmp1"(#loc9))
#loc41 = loc("tmp11"(#loc10))
#loc42 = loc("tmp11"(#loc11))
#loc43 = loc("tmp12"(#loc12))
#loc44 = loc("tmp12"(#loc13))
#loc45 = loc("tmp3"(#loc14))
#loc46 = loc("tmp4"(#loc15))
#loc47 = loc("tmp5"(#loc16))
#loc48 = loc("tmp6"(#loc17))
#loc49 = loc("tmp7"(#loc18))
#loc50 = loc("tmp8"(#loc19))
#loc51 = loc("tmp9"(#loc20))
#loc52 = loc("tmp10"(#loc21))
#loc53 = loc("tmp13"(#loc22))
#loc54 = loc("tmp14"(#loc23))
#loc55 = loc("tmp15"(#loc24))
