#loc = loc("/workspace/Documents/pytorch2_wjk/impnet/inductor_cache/qw/cqwz7mwg3rwy7xcxwelhvikcyvx3ejv7wxshnp7las2v34ugxxru.py":18:0)
#loc22 = loc("in_out_ptr0"(#loc))
#loc23 = loc("in_ptr0"(#loc))
#loc24 = loc("in_ptr1"(#loc))
#loc25 = loc("xnumel"(#loc))
module {
  tt.func public @triton_poi_fused_add_addmm_fill_full_like_lift_fresh_mul_rsub_select_3(%in_out_ptr0: !tt.ptr<f32> {tt.divisibility = 16 : i32} loc("in_out_ptr0"(#loc)), %in_ptr0: !tt.ptr<f32> {tt.divisibility = 16 : i32} loc("in_ptr0"(#loc)), %in_ptr1: !tt.ptr<f32> {tt.divisibility = 16 : i32} loc("in_ptr1"(#loc)), %xnumel: i32 loc("xnumel"(#loc))) attributes {noinline = false} {
    %tmp10 = arith.constant 1.000000e+00 : f32 loc(#loc26)
    %tmp7 = arith.constant dense<-1.000000e+02> : tensor<2xf32> loc(#loc27)
    %tmp7_0 = arith.constant dense<1.000000e+02> : tensor<2xf32> loc(#loc27)
    %tmp4 = arith.constant dense<1> : tensor<2xi32> loc(#loc28)
    %xmask = arith.constant dense<2> : tensor<2xi32> loc(#loc29)
    %c2_i32 = arith.constant 2 : i32 loc(#loc5)
    %xoffset = tt.get_program_id x : i32 loc(#loc30)
    %xoffset_1 = arith.muli %xoffset, %c2_i32 : i32 loc(#loc31)
    %xindex = tt.make_range {end = 2 : i32, start = 0 : i32} : tensor<2xi32> loc(#loc32)
    %xindex_2 = tt.splat %xoffset_1 : i32 -> tensor<2xi32> loc(#loc33)
    %xindex_3 = arith.addi %xindex_2, %xindex : tensor<2xi32> loc(#loc33)
    %xmask_4 = arith.cmpi slt, %xindex_3, %xmask : tensor<2xi32> loc(#loc29)
    %tmp0 = tt.load %in_ptr0 : !tt.ptr<f32> loc(#loc34)
    %tmp1 = tt.splat %tmp0 : f32 -> tensor<2xf32> loc(#loc35)
    %tmp11 = tt.splat %in_ptr1 : !tt.ptr<f32> -> tensor<2x!tt.ptr<f32>> loc(#loc36)
    %tmp11_5 = tt.addptr %tmp11, %xindex_3 : tensor<2x!tt.ptr<f32>>, tensor<2xi32> loc(#loc36)
    %tmp11_6 = tt.load %tmp11_5, %xmask_4 : tensor<2x!tt.ptr<f32>> loc(#loc37)
    %tmp12 = tt.splat %in_out_ptr0 : !tt.ptr<f32> -> tensor<2x!tt.ptr<f32>> loc(#loc38)
    %tmp12_7 = tt.addptr %tmp12, %xindex_3 : tensor<2x!tt.ptr<f32>>, tensor<2xi32> loc(#loc38)
    %tmp12_8 = tt.load %tmp12_7, %xmask_4 : tensor<2x!tt.ptr<f32>> loc(#loc39)
    %tmp4_9 = arith.cmpi eq, %xindex_3, %tmp4 : tensor<2xi32> loc(#loc28)
    %tmp7_10 = arith.select %tmp4_9, %tmp7_0, %tmp7 : tensor<2xi1>, tensor<2xf32> loc(#loc27)
    %tmp8 = arith.mulf %tmp1, %tmp7_10 : tensor<2xf32> loc(#loc40)
    %tmp10_11 = arith.subf %tmp10, %tmp0 : f32 loc(#loc26)
    %tmp10_12 = tt.splat %tmp10_11 : f32 -> tensor<2xf32> loc(#loc26)
    %tmp13 = arith.addf %tmp11_6, %tmp12_8 : tensor<2xf32> loc(#loc41)
    %tmp14 = arith.mulf %tmp10_12, %tmp13 : tensor<2xf32> loc(#loc42)
    %tmp15 = arith.addf %tmp8, %tmp14 : tensor<2xf32> loc(#loc43)
    tt.store %tmp12_7, %tmp15, %xmask_4 : tensor<2x!tt.ptr<f32>> loc(#loc20)
    tt.return loc(#loc21)
  } loc(#loc)
} loc(#loc)
#loc1 = loc("/workspace/Documents/pytorch2_wjk/impnet/inductor_cache/qw/cqwz7mwg3rwy7xcxwelhvikcyvx3ejv7wxshnp7las2v34ugxxru.py":36:19)
#loc2 = loc("/workspace/Documents/pytorch2_wjk/impnet/inductor_cache/qw/cqwz7mwg3rwy7xcxwelhvikcyvx3ejv7wxshnp7las2v34ugxxru.py":33:32)
#loc3 = loc("/workspace/Documents/pytorch2_wjk/impnet/inductor_cache/qw/cqwz7mwg3rwy7xcxwelhvikcyvx3ejv7wxshnp7las2v34ugxxru.py":30:19)
#loc4 = loc("/workspace/Documents/pytorch2_wjk/impnet/inductor_cache/qw/cqwz7mwg3rwy7xcxwelhvikcyvx3ejv7wxshnp7las2v34ugxxru.py":22:21)
#loc5 = loc(unknown)
#loc6 = loc("/workspace/Documents/pytorch2_wjk/impnet/inductor_cache/qw/cqwz7mwg3rwy7xcxwelhvikcyvx3ejv7wxshnp7las2v34ugxxru.py":20:28)
#loc7 = loc("/workspace/Documents/pytorch2_wjk/impnet/inductor_cache/qw/cqwz7mwg3rwy7xcxwelhvikcyvx3ejv7wxshnp7las2v34ugxxru.py":20:33)
#loc8 = loc("/workspace/Documents/pytorch2_wjk/impnet/inductor_cache/qw/cqwz7mwg3rwy7xcxwelhvikcyvx3ejv7wxshnp7las2v34ugxxru.py":21:36)
#loc9 = loc("/workspace/Documents/pytorch2_wjk/impnet/inductor_cache/qw/cqwz7mwg3rwy7xcxwelhvikcyvx3ejv7wxshnp7las2v34ugxxru.py":21:23)
#loc10 = loc("/workspace/Documents/pytorch2_wjk/impnet/inductor_cache/qw/cqwz7mwg3rwy7xcxwelhvikcyvx3ejv7wxshnp7las2v34ugxxru.py":24:19)
#loc11 = loc("/workspace/Documents/pytorch2_wjk/impnet/inductor_cache/qw/cqwz7mwg3rwy7xcxwelhvikcyvx3ejv7wxshnp7las2v34ugxxru.py":25:33)
#loc12 = loc("/workspace/Documents/pytorch2_wjk/impnet/inductor_cache/qw/cqwz7mwg3rwy7xcxwelhvikcyvx3ejv7wxshnp7las2v34ugxxru.py":26:31)
#loc13 = loc("/workspace/Documents/pytorch2_wjk/impnet/inductor_cache/qw/cqwz7mwg3rwy7xcxwelhvikcyvx3ejv7wxshnp7las2v34ugxxru.py":26:36)
#loc14 = loc("/workspace/Documents/pytorch2_wjk/impnet/inductor_cache/qw/cqwz7mwg3rwy7xcxwelhvikcyvx3ejv7wxshnp7las2v34ugxxru.py":27:35)
#loc15 = loc("/workspace/Documents/pytorch2_wjk/impnet/inductor_cache/qw/cqwz7mwg3rwy7xcxwelhvikcyvx3ejv7wxshnp7las2v34ugxxru.py":27:40)
#loc16 = loc("/workspace/Documents/pytorch2_wjk/impnet/inductor_cache/qw/cqwz7mwg3rwy7xcxwelhvikcyvx3ejv7wxshnp7las2v34ugxxru.py":34:18)
#loc17 = loc("/workspace/Documents/pytorch2_wjk/impnet/inductor_cache/qw/cqwz7mwg3rwy7xcxwelhvikcyvx3ejv7wxshnp7las2v34ugxxru.py":37:20)
#loc18 = loc("/workspace/Documents/pytorch2_wjk/impnet/inductor_cache/qw/cqwz7mwg3rwy7xcxwelhvikcyvx3ejv7wxshnp7las2v34ugxxru.py":38:20)
#loc19 = loc("/workspace/Documents/pytorch2_wjk/impnet/inductor_cache/qw/cqwz7mwg3rwy7xcxwelhvikcyvx3ejv7wxshnp7las2v34ugxxru.py":39:19)
#loc20 = loc("/workspace/Documents/pytorch2_wjk/impnet/inductor_cache/qw/cqwz7mwg3rwy7xcxwelhvikcyvx3ejv7wxshnp7las2v34ugxxru.py":40:40)
#loc21 = loc("/workspace/Documents/pytorch2_wjk/impnet/inductor_cache/qw/cqwz7mwg3rwy7xcxwelhvikcyvx3ejv7wxshnp7las2v34ugxxru.py":40:4)
#loc26 = loc("tmp10"(#loc1))
#loc27 = loc("tmp7"(#loc2))
#loc28 = loc("tmp4"(#loc3))
#loc29 = loc("xmask"(#loc4))
#loc30 = loc("xoffset"(#loc6))
#loc31 = loc("xoffset"(#loc7))
#loc32 = loc("xindex"(#loc8))
#loc33 = loc("xindex"(#loc9))
#loc34 = loc("tmp0"(#loc10))
#loc35 = loc("tmp1"(#loc11))
#loc36 = loc("tmp11"(#loc12))
#loc37 = loc("tmp11"(#loc13))
#loc38 = loc("tmp12"(#loc14))
#loc39 = loc("tmp12"(#loc15))
#loc40 = loc("tmp8"(#loc16))
#loc41 = loc("tmp13"(#loc17))
#loc42 = loc("tmp14"(#loc18))
#loc43 = loc("tmp15"(#loc19))
